GAN_demo/model/model.pth (torch, 253073 bytes, 10 tensors)

weight f4 [6, 1, 5, 5]
-0.11798836 -0.097909376 -0.3415732 -0.23764794 -0.16946639 -0.15652677 -0.31810436 -0.2910192
-0.29233485 0.15676758 -0.21659745 -0.14019373 -0.20172536 0.008895413 0.46908322 -0.07256422
0.20326787 0.20105268 0.46837682 0.526883 0.11930137 0.12923037 0.5866733 0.5132727
0.43008316 -0.23365277 -0.0075041302 -0.14348955 -0.10161992 0.19138823 -0.25144792 -0.002878269
0.02356638 0.049616326 -0.25920364 -0.036622383 -0.2331391 0.077447 -0.115122035 -0.19080636
-0.10843618 -0.04489584 -0.12654701 -0.078644775 -0.029850401 -0.20996095 -0.13915658 -0.0748771
-0.05751757 0.07953627 -0.18910971 -0.043345556 -0.0125449365 0.07972656 0.056503598 -0.13383678
-0.21068668 -0.11758493 0.15979448 0.31525797 -0.24120925 -0.2561843 0.048519418 0.35387847
0.119519286 -0.2794561 0.12130805 0.013406062 0.36787644 0.11204127 -0.18973865 0.038481686
0.34982765 0.13796571 -0.11622513 -0.20982923 -0.20784728 -0.18238981 0.047442652 0.42531437
-0.20654356 -0.20265059 -0.28757074 0.2364461 0.4093954 -0.24756362 -0.35381514 -0.21306883
0.43461767 0.24350841 -0.3256275 -0.18895824 0.036096204 0.36524376 0.2516654 -0.23119317
-0.2737955 0.06146911 0.36499494 0.18621047 0.13069342 0.25774407 0.33246222 0.4766301
0.21208464 0.24775222 0.6750462 0.3762904 0.36584824 0.00041343225 0.3046268 0.46247786
0.39525494 0.1346255 -0.1584947 -0.001757988 -0.111355744 0.42457467 0.21774946 0.41448018
-0.234062 -0.14561214 0.15713243 0.29201484 0.3627842 -0.15102167 -0.09518852 -0.04856498
-0.22975563 0.1440947 -0.16885781 0.011745409 -0.18287006 -0.01573687 -0.14051768 -0.13441463
0.007161677 -0.056255 0.067816034 -0.027413398 -0.08750056 0.06446365 0.08706072 -0.03036387
0.06387524 -0.116712905 -0.20897597 0.1817256 0.083431214 -0.13417059
00000000: e2a3 f1bd b684 c8bd afe2 aebe fb59 73be
00000010: 9988 2dbe 8e48 20be 93de a2be 7800 95be
00000020: eaac 95be ae87 203e b9cb 5dbe f28e 0fbe
00000030: 1891 4ebe 11be 113c ad2b f03e 8d9c 94bd
00000040: 7425 503e c1e0 4d3e 16cf ef3e cee1 063f
00000050: 4754 f43d f754 043e 3930 163f d765 033f
00000060: dc33 dc3e ac42 6fbe 35e5 f5bb edee 12be
00000070: 1b1e d0bd 47fb 433e c8bd 80be 57a1 3cbb
00000080: 480e c13c 7d3a 4b3d 57b6 84be 5a01 16bd
00000090: 04bc 6ebe 889c 9e3d 1ac5 ebbd be62 43be
000000a0: ca13 debd b3e4 37bd 8a95 01be 8310 a1bd
000000b0: d488 f4bc 0100 57be 107f 0ebe 2a59 99bd
000000c0: 8b97 6bbd e9e3 a23d faa5 41be 1c8b 31bd
000000d0: 4789 4dbc ae47 a33d 5170 673d 820c 09be
000000e0: 40be 57be 5ed0 f0bd 2aa1 233e 7e69 a13e
000000f0: 8fff 76be 972a 83be 4cbc 463d 8f2f b53e
00000100: 87c6 f43d df14 8fbe 5b70 f83d 19a5 5b3c
00000110: 4d5a bc3e e575 e53d d94a 42be f99e 1d3d
00000120: 9c1c b33e e246 0d3e 7107 eebd 79dd 56be
00000130: ebd5 54be 65c4 3abe 3a53 423d cec2 d93e
00000140: 2880 53be a383 4fbe 793c 93be ed1e 723e
00000150: 469c d13e 5181 7dbe 4227 b5be b72e 5abe
00000160: 3586 de3e 455a 793e a6b8 a6be 457e 41be
00000170: 9dd9 133d 3b01 bb3e 4ada 803e e7bd 6cbe
00000180: ec2e 8cbe 09c7 7b3d 9ee0 ba3e f5ad 3e3e
00000190: 7fd4 053e 08f7 833e 7d38 aa3e dc08 f43e
000001a0: b72c 593e c2b2 7d3e d4cf 2c3f 23a9 c03e
000001b0: 7650 bb3e f0c1 d839 0bf8 9b3e e6c9 ec3e
000001c0: db5e ca3e 44db 093e 6f4c 22be 4a6c e6ba
000001d0: 7b0e e4bd da61 d93e b7f9 5e3e bf36 d43e
000001e0: f3ad 6fbe 591b 15be 53e7 203e f882 953e
000001f0: dabe b93e 6da5 1abe 33f2 c2bd 13ec 46bd
00000200: 0f45 6bbe 908d 133e 10e9 2cbe d16f 403c
00000210: 4a42 3bbe 9cea 80bc dee3 0fbe fda3 09be
00000220: 80ac ea3b a56b 66bd 22e3 8a3d 1092 e0bc
00000230: 7e33 b3bd 8505 843d e44c b23d a7bd f8bc
00000240: 06d1 823d 2d07 efbd ccfd 55be 4716 3a3e
00000250: fcdd aa3d 0464 09be

bias f4 [6]
0.4546804 0.18338749 0.1509694 -0.21681169 0.34265283 0.07765279
00000000: dfcb e83e eec9 3b3e b997 1a3e e203 5ebe
00000010: 3170 af3e 6d08 9f3d

weight f4 [16, 6, 5, 5]
-0.031683236 -0.007845703 0.057455063 -0.059365295 -0.021262407 0.10370977 -0.1650571 -0.08118417
-0.024545686 0.050464626 0.06452299 -0.088800505 0.08827605 -0.04665095 0.01509986 0.019043842
-0.005759471 -0.073396645 -0.022158047 -0.03275993 -0.029780531 -0.038864676 -0.15120596 0.02264571
0.012682682 -0.0036653064 0.034516957 -0.03273273 -0.009735391 -0.0036219985 0.08030931 0.07453885
0.05669168 0.033822913 -0.0072247596 0.011604597 -0.01365753 -0.07159584 -0.05594285 -0.014331923
-0.03776591 -0.047507823 0.021548945 0.01335655 0.039602764 -0.039825678 0.020929022 -0.08487411
0.0059751975 -0.09949148 0.01505533 0.121249616 0.040242523 -0.02217974 -0.06865863 0.030435035
0.049241744 -0.051750086 0.044039313 -0.08918283 0.10943086 -0.06993895 0.04323438 0.0126298135
0.0008099238 -0.013122182 -0.08552297 -0.093526684 -0.0019397817 0.017575689 0.090725936 -0.08279873
-0.04171121 0.00072018214 0.096376255 0.10328877 0.04873247 0.08817707 0.10326637 -0.017343292
0.17749603 -0.03281546 0.10833436 0.1291137 8.061541e-05 0.22806829 -0.038446203 -0.052555766
0.017318588 0.028016744 0.21012652 0.01923234 -0.050224043 -0.010681533 0.060903803 0.024193125
-0.058254357 -0.11848912 -0.07405827 0.123045206 -0.01100456 -0.1559745 -0.046138458 -0.10414861
-0.15055309 0.0123031605 -0.041455008 0.007872662 -0.067975685 0.03393553 0.036507953 0.04261492
-0.06668355 0.074998856 0.006803693 0.10362859 0.060288846 0.10912112 0.017087212 0.11224999
-0.10943371 -0.029263008 0.13943371 0.11389908 0.037669826 0.06602045 0.07835215 -0.02258457
0.03478729 0.04587446 0.04612217 0.09472314 -0.008507868 0.0789832 -0.018839503 -0.056604363
-0.06804224 0.0416509 -0.0327982 -0.0357657 -0.041967873 -0.0587038 -0.02577378 0.047220588
-0.034956627 -0.070071064 0.061441496 -0.02171334 -0.0928829 -0.08037156 0.011508368 -0.0060941535
-0.024783304 0.0051381006 -0.026825523 0.0023506617 0.052149158 -0.08501677 0.034983255 -0.11131442
0.043845072 -0.041632295 0.028856713 0.090046786 -0.16665038 -0.09599587 -0.012373658 0.14864235
-0.026156206 -0.21633065 -0.042083923 0.051611606 0.06597761 -0.12557861 -0.057986196 -0.02865
-0.11405011 -0.093001924 -0.02388544 -0.09487195 -0.05138179 0.047743976 -0.036815695 -0.068071425
0.02438265 0.01781706 -0.00040816754 -0.0067502884 -0.012894276 -0.047823697 -0.010354253 -0.10240786
-0.032914292 -0.0024549537 -0.09163447 -0.05465694 -0.028605279 -0.05404772 -0.01752048 0.014651466
0.022508902 -0.083246715 -0.09512195 0.012096635 -0.07319051 0.029483614 0.058683656 -0.09940206
0.036829296 0.030051576 0.032921784 -0.02524037 -0.09134881 0.17382145 0.022294216 -0.09330034
-0.108096726 0.020281717 0.18632765 -0.005099084 0.014311281 0.0757601 0.004193003 -0.0423858
-0.042281367 -0.043865263 -0.10120655 -0.019549586 -0.036341 -0.04785943 0.014407248 -0.062210012
-0.11180215 0.14081371 -0.0007977984 0.023408316 -0.060752995 -0.037374195 0.19573559 0.16950065
-0.10467612 -0.043488897 0.07079007 0.21972123 0.10834565 -0.07065544 0.0050889994 0.11902428
0.11312183 0.08660188 -0.050647557 -0.07864166 -0.13234788 0.04545536 0.020448763 -0.13103718
00000000: 48c6 01bd 438b 00bc 0056 6b3d 0629 73bd
00000010: 802e aebc ca65 d43d ba04 29be e343 a6bd
00000020: 0914 c9bc ffb3 4e3d a124 843d 0add b5bd
00000030: 13ca b43d 1115 3fbd 6765 773c d501 9c3c
00000040: f2b9 bcbb fb50 96bd cb84 b5bc 472f 06bd
00000050: 4df6 f3bc 9130 1fbd bcd5 1abe 7f83 b93c
00000060: 06cb 4f3c a335 70bb a761 0d3d c112 06bd
00000070: 3081 1fbc 0d5f 6dbb 3579 a43d d3a7 983d
00000080: 8935 683d e589 0a3d adbd ecbb 3521 3e3c
00000090: d5c3 5fbc d7a0 92bd 5424 65bd 71d0 6abc
000000a0: 6db0 1abd 9097 42bd 6a87 b03c 6ed5 5a3c
000000b0: 8236 223d 4020 23bd 5773 ab3c 7ad2 adbd
000000c0: 97cb c33b 30c2 cbbd a1aa 763c b851 f83d
000000d0: 58d5 243d 49b2 b5bc e59c 8cbd e552 f93c
000000e0: b6b1 493d e6f7 53bd 9162 343d 7da5 b6bd
000000f0: 491d e03d 273c 8fbd 8916 313d 47ed 4e3c
00000100: 1151 543a 6cfe 56bc ab26 afbd eb8a bfbd
00000110: 4640 feba e4fa 8f3c 85ce b93d 6192 a9bd
00000120: 60d9 2abd 9bca 3c3a ea60 c53d 1089 d33d
00000130: b39b 473d 2e96 b43d 527d d33d 8513 8ebc
00000140: 85c1 353e 8169 06bd 68de dd3d 6236 043e
00000150: 1210 a938 bc8a 693e c479 1dbd b744 57bd
00000160: b6df 8d3c 5f83 e53c 682b 573e 248d 9d3c
00000170: bab7 4dbd 9901 2fbc 4476 793d a930 c63c
00000180: 1f9c 6ebd 6caa f2bd ddab 97bd 20ff fb3d
00000190: 784c 34bc c8b7 1fbe aefb 3cbd de4b d5bd
000001a0: 972a 1abe 3293 493c bacc 29bd 56fc 003c
000001b0: d636 8bbd fbff 0a3d 5d89 153d fb8c 2e3d
000001c0: 6391 88bd 0099 993d 83f1 de3b 3a3b d43d
000001d0: 70f1 763d e57a df3d 7bfa 8b3c 53e3 e53d
000001e0: c81e e0bd fab8 efbc b6c7 0e3e ec43 e93d
000001f0: ad4b 1a3d bb35 873d 1877 a03d 4703 b9bc
00000200: 1e7d 0e3d dce6 3b3d 9aea 3c3d 35fe c13d
00000210: 9664 0bbc f2c1 a13d 4d55 9abc fad9 67bd
00000220: bb59 8bbd 229a 2a3d 6857 06bd 0e7f 12bd
00000230: 81e6 2bbd 6573 70bd 8923 d3bc 606a 413d
00000240: ae2e 0fbd 6b81 8fbd 14aa 7b3d 2de0 b1bc
00000250: 6439 bebd d899 a4bd 988d 3c3c 77b1 c7bb
00000260: 5b06 cbbc 835d a83b 33c1 dbbc 8f0d 1a3b
00000270: 5b9a 553d 461d aebd 9a4a 0f3d d1f8 e3bd
00000280: e496 333d a086 2abd ea64 ec3c 736a b83d
00000290: 66a6 2abe 7c99 c4bd e2ba 4abc b335 183e
000002a0: 8a45 d6bc c885 5dbe 3160 2cbd b166 533d
000002b0: 451f 873d ae97 00be ef82 6dbd 68b3 eabc
000002c0: 1b93 e9bd cb77 bebd 66ab c3bc 3a4c c2bd
000002d0: b675 52bd 308f 433d 0ecc 16bd 0869 8bbd
000002e0: 20be c73c 15f5 913c 52ff d5b9 8631 ddbb
000002f0: 8342 53bc c8e2 43bd e3a4 29bc 36bb d1bd
00000300: 23d1 06bd 4ae3 20bb daaa bbbd f5df 5fbd
00000310: 9e55 eabc 2461 5dbd 1c87 8fbc b40c 703c
00000320: 9764 b83c 417d aabd 4ccf c2bd f730 463c
00000330: e8e4 95bd 9f87 f13c 465e 703d 4f93 cbbd
00000340: 51da 163d b92e f63c fed8 063d e4c4 cebc
00000350: 1615 bbbd 40fe 313e 5ca2 b63c 4014 bfbd
00000360: d161 ddbd d825 a63c adcc 3e3e 3816 a7bb
00000370: dd79 6a3c 1c28 9b3d 7565 893b bc9c 2dbd
00000380: 3a2f 2dbd 10ac 33bd 6145 cfbd 7426 a0bc
00000390: 4dda 14bd 4008 44bd 610c 6c3c edcf 7ebd
000003a0: 87f8 e4bd 7831 103e 5823 51ba ccc2 bf3c
000003b0: 22d8 78bd af15 19bd e96e 483e 9491 2d3e
000003c0: 6f60 d6bd 6a21 32bd 62fa 903d 9afe 603e
000003d0: 53e4 dd3d cdb3 90bd 9fc1 a63b 00c3 f33d
000003e0: 6bac e73d 545c b13d d073 4fbd e10e a1bd
000003f0: 3486 07be 662f 3a3d 2a84 a73c 9c2e 06be

bias f4 [16]
0.006229102 -0.069644235 0.047758378 -0.03170519 -0.038938947 0.019599225 0.071857 -0.035179745
0.029692924 -0.013057426 0.080211684 -0.08273838 0.032233883 0.0045096427 -0.022890467 0.062064383
00000000: 7f1d cc3b a3a1 8ebd 4a9e 433d 4ddd 01bd
00000010: 727e 1fbd 8e8e a03c c329 933d a318 10bd
00000020: 933e f33c d0ee 55bc 0646 a43d bd72 a9bd
00000030: ad07 043d a0c5 933b ca84 bbbc 3937 7e3d

weight f4 [120, 400]
0.009285172 -0.018348627 -0.024013141 0.022707177 0.021680936 -0.019366946 -0.025508326 0.027933367
0.02796189 -0.005543022 -0.01812369 -0.009006709 0.010994449 0.041291147 0.02144368 -0.035005488
-0.0027089417 -0.020878144 -0.030372972 0.033178367 -0.039823506 0.016612194 0.033789985 -0.03884818
0.041805 -0.005876387 0.0010827866 0.028622637 -0.011728534 0.025190847 0.0020048302 -0.04661119
-0.0063788746 0.00068382017 0.05960535 0.014453568 -0.023751881 0.020223511 0.008350255 -0.010982691
0.062242515 -0.07889405 -0.040575773 0.046444044 0.033582587 0.019987784 -0.0075697363 -0.015685927
0.053493284 -0.016683085 -0.028097132 -0.032998275 -0.010747786 -0.019346649 -0.025451526 0.021980602
0.009226824 -0.014303663 -0.015801562 0.02773293 -0.0054386877 -0.09911468 -0.075371265 0.027819442
-0.031634394 0.040587254 0.032764856 -0.038344145 -0.012755768 -0.031410493 0.04384392 0.060323976
-0.029194184 0.015718404 0.051809445 -0.006923715 -0.034677166 -0.02653922 -0.003427114 -0.006260412
-0.0037131396 0.017784325 -0.03832599 -0.042605035 0.006806522 0.0105359545 -0.046033386 -0.015443893
0.014001458 0.007951335 0.0071756714 0.017900782 -0.010258495 0.05188208 -0.026106542 -0.014090355
-0.033909116 -0.034884047 -0.022508282 0.041715696 0.042710222 -0.025672223 0.012096993 -0.015667142
-0.021456 0.04419628 0.029043624 0.04227931 -0.016833806 -0.04166225 -0.029922089 -0.047294926
0.008906245 0.0068081785 -0.021324651 -0.012353518 -0.05552535 0.007831456 0.050147843 0.0432732
-0.04082697 0.035052385 0.001285605 0.02732263 -0.047840565 0.03054171 0.0543965 -0.04444445
0.010568389 0.019589147 0.073311724 -0.025858523 -0.028354904 -0.027966958 -0.02911311 -0.001461166
0.06675261 -0.0030967891 0.017989593 -0.035749022 -0.017191244 0.009150767 0.0056106956 0.016297963
0.0160043 0.03885164 -0.001386122 0.037080165 0.00021203252 -0.02592296 -0.052329022 -0.040599376
-0.02382424 -0.027457591 0.01194862 -0.05788866 0.02576794 -0.021103293 -0.032416448 -0.038635958
-0.027017068 -0.050647333 -0.04107525 -0.029884616 -0.036607027 -0.040941153 0.022201413 0.017311594
0.024110474 0.002939667 0.043313965 -0.03055256 0.026307775 0.02649832 -0.04417006 0.034837894
0.04511416 -0.027780397 -0.0056004827 -0.031982537 0.0074745836 -0.0017796515 -0.013741436 -0.0032186261
-0.007979715 0.029866483 -0.04832617 0.023139084 0.042091943 0.032609366 0.032322634 0.038505238
0.023859598 -0.048917286 -0.055619933 -0.041549083 0.0069704796 0.017487338 0.046525065 0.009210354
0.024366576 -0.02407996 0.066847816 -0.026747815 -0.05752892 -0.0048953122 0.053336408 0.046999507
0.041462973 -0.011989176 -0.018545993 -0.04268582 0.061516594 0.020430513 0.009725762 -0.05868057
-0.06714748 -0.042286523 0.044793464 0.024227835 0.0016884529 0.011035809 0.04363243 0.032384437
0.05151692 -0.012050082 -0.05015798 -0.013902652 -0.006956793 -0.016963264 0.024523625 0.006492057
0.06286665 0.0196975 -0.046995375 -0.047518536 0.019682745 -0.036827557 -0.018649194 -0.027552938
0.029824208 -0.060646303 0.008181719 0.009127664 -0.0064304587 -0.036968175 0.0051243 -0.012387985
-0.024374632 -0.03254215 0.02530357 -0.03655687 -0.04446134 -0.02719447 0.03847588 -0.043959703
00000000: d620 183c dc4f 96bc 35b7 c4bc 6704 ba3c
00000010: 389c b13c 6ea7 9ebc d6f6 d0bc 84d4 e43c
00000020: 5510 e53c 3da2 b5bb 2278 94bc e090 13bc
00000030: 1022 343c e820 293d a8aa af3c ea61 0fbd
00000040: 8088 31bb a408 abbc bdd0 f8bc 0ae6 073d
00000050: f91d 23bd 4c16 883c 5e67 0a3d 451f 1fbd
00000060: b83b 2b3d b58e c0bb 4aec 8d3a 057a ea3c
00000070: 0929 40bc 095d ce3c 7863 033b 60eb 3ebd
00000080: e105 d1bb 6542 333a bd24 743d a8ce 6c3c
00000090: 4e93 c2bc c7ab a53c 82cf 083c bff0 33bc
000000a0: 02f2 7e3d 3493 a1bd c832 26bd 1c3c 3e3d
000000b0: e58d 093d 6cbd a33c 8d0b f8bb c67f 80bc
000000c0: c61b 5b3d f7aa 88bc f52b e6bc 3329 07bd
000000d0: 7b17 30bc dd7c 9ebc b87f d0bc aa10 b43c
000000e0: 1b2c 173c e959 6abc 4772 81bc 2b30 e33c
000000f0: 0537 b2bb a3fc cabd 405c 9abd 99e5 e33c
00000100: 1193 01bd d23e 263d 7134 063d c00e 1dbd
00000110: 92fd 50bc 4aa8 00bd af95 333d 4616 773d
00000120: a428 efbc e2c3 803c 2436 543d 55e0 e2bb
00000130: a509 0ebd c768 d9bc 6f99 60bb 2424 cdbb
00000140: 2558 73bb 6fb0 913c b7fb 1cbd 9e82 2ebd
00000150: 3f09 df3b ff9e 2c3c 818d 3cbd 6208 7dbc
00000160: 5f66 653c 5146 023c e521 eb3b a9a4 923c
00000170: 3f13 28bc 4e82 543d 63dd d5bc 3bdb 66bc
00000180: 49e4 0abd 93e2 0ebd 4a63 b8bc 14de 2a3d
00000190: eaf0 2e3d 8e4e d2bc 7732 463c 6158 80bc
000001a0: 7ec4 afbc 2907 353d e5ec ed3c 122d 2d3d
000001b0: 0de7 89bc 09a6 2abd 2b1f f5bc 53b8 41bd
000001c0: 80eb 113c 2417 df3b 09b1 aebc 6966 4abc
000001d0: 8d6e 63bd 824f 003c d367 4d3d 3d3f 313d
000001e0: 2e3a 27bd 1793 0f3d bf81 a83a b5d3 df3c
000001f0: 78f4 43bd 9c32 fa3c ddce 5e3d 620b 36bd
00000200: 0927 2d3c 6b79 a03c 7524 963d 41d5 d3bc
00000210: 8b48 e8bc f61a e5bc 9e7e eebc 9884 bfba
00000220: 98b5 883d 80f3 4abb e95e 933c 916d 12bd
00000230: a7d4 8cbc 19ed 153c edd9 b73b 4e83 853c
00000240: 731b 833c e622 1f3d 89ae b5ba 5fe1 173d
00000250: 0c55 5e39 635c d4bc f556 56bd 884b 26bd
00000260: 0d2b c3bc beee e0bc 25c4 433c a91c 6dbd
00000270: 4917 d33c d0e0 acbc 1cc7 04bd bd40 1ebd
00000280: e652 ddbc 9473 4fbd 853e 28bd 95d0 f4bc
00000290: 40f1 15bd e9b1 27bd bddf b53c 0bd1 8d3c
000002a0: 5483 c53c 6ea7 403b fc69 313d 5d49 fabc
000002b0: 6783 d73c 0113 d93c aaeb 34bd 2eb2 0e3d
000002c0: a0c9 383d b793 e3bc 4184 b7bb 1f00 03bd
000002d0: 5aed f43b 3243 e9ba c323 61bc 96ef 52bb
000002e0: 5abd 02bc 8eaa f43c a9f1 45bd 2d8e bd3c
000002f0: 9a68 2c3d 6691 053d bd64 043d abb7 1d3d
00000300: 3475 c33c 7e5d 48bd bad1 63bd 5f2f 2abd
00000310: 9f68 e43b 9b41 8f3c 1191 3e3d 06e7 163c
00000320: 6a9c c73c 5643 c5bc 82e7 883d 3c1e dbbc
00000330: 72a3 6bbd db68 a0bb 4777 5a3d 8e82 403d
00000340: 14d5 293d 406e 44bc c4ed 97bc 54d7 2ebd
00000350: d3f8 7b3d e45d a73c cd58 1f3c 0a5b 70bd
00000360: 9e84 89bd a234 2dbd 5a79 373d 7479 c63c
00000370: 144f dd3a 8acf 343c ebb7 323d 8ba5 043d
00000380: 6803 533d b56d 45bc 7472 4dbd f3c7 63bc
00000390: cff5 e3bb 8bf6 8abc c5e5 c83c 52bb d43b
000003a0: 3bc0 803d a75c a13c 397e 40bd cca2 42bd
000003b0: b53d a13c 7ed8 16bd 32c6 98bc b3b6 e1bc
000003c0: e651 f43c 4268 78bd 9e0c 063c 338c 153c
000003d0: 99b6 d2bb f16b 17bd bee9 a73b faf6 4abc
000003e0: 4fad c7bc eb4a 05bd 6f49 cf3c a8bc 15bd
000003f0: 181d 36bd f0c6 debc e298 1d3d 170f 34bd

bias f4 [120]
0.020022443 0.0074909534 0.003438902 0.010227558 0.0069716075 0.05051144 -0.012389927 -0.011724816
-0.031268213 -0.006901517 0.021854205 0.045271315 0.023067588 -0.031356797 0.016739722 0.028072339
0.037937917 -0.041483305 0.020185448 -0.035518844 0.03803823 0.016856544 0.029686868 -0.037223328
-0.015457168 0.0046054004 0.027026676 -0.006858765 0.0017723303 0.004841047 -0.00627377 0.0047704624
-0.019836795 0.012904958 0.0021513335 -0.019928925 0.03051382 -0.002691754 0.02204633 -0.044948466
-0.043020137 0.020804238 0.030839894 -0.008087848 0.033334058 0.047628608 0.050533477 -0.026533209
0.04286351 0.011770959 -0.040447876 0.029399538 -0.018718189 0.038171757 -0.025017496 0.03654607
-0.023461036 0.051496923 0.00975244 0.0032819877 0.039578762 -0.005502896 0.020510998 -0.0015538253
-0.012611571 -0.04135599 0.027924767 0.0057880725 -0.034897983 -0.024869915 -0.01768306 0.02216546
0.037554428 0.03131637 0.03311151 0.017169625 -0.009363528 0.0020783043 -0.03002767 0.025843665
-0.028427074 0.0089806905 -0.01593167 0.039480116 -0.040579006 -0.009238526 0.0304883 0.012425549
0.055878133 -0.015701847 -0.041751068 0.023360223 -0.05023391 0.019650094 0.0124185365 -0.03425489
-0.026187103 -0.00014095644 -0.01697256 -0.038354732 -0.040581964 0.025075886 0.0006002537 0.021456588
-0.049100116 0.014112353 -0.035010546 0.040795367 0.03608032 0.010318349 -0.030785229 -0.027025582
-0.0072063436 -0.03202801 -0.016164042 0.024590356 0.0049611116 0.043873746 0.011599638 -0.045926712
00000000: 1b06 a43c ac76 f53b 345f 613b 7d91 273c
00000010: 1572 e43b 15e5 4e3d 1fff 4abc 7119 40bc
00000020: 1913 00bd 1f26 e2bb 9707 b33c 6a6e 393d
00000030: 3df8 bc3c fc6f 00bd be21 893c f6f7 e53c
00000040: ca64 1b3d 66ea 29bd f45b a53c 357c 11bd
00000050: facd 1b3d bc16 8a3c e031 f33c 7d77 18bd
00000060: 1040 7dbc e6e8 963b 0c67 dd3c 7ebf e0bb
00000070: 894d e83a a5a1 9e3b 3294 cdbb 8a51 9c3b
00000080: c680 a2bc 516f 533c 63fd 0c3b fc41 a3bc
00000090: 1ef8 f93c 2368 30bb 819a b43c e21b 38bd
000000a0: e235 30bd a66d aa3c f2a3 fc3c e582 04bc
000000b0: 4b89 083d 3716 433d 31fc 4e3d 2c5c d9bc
000000c0: a691 2f3d fbda 403c acac 25bd 4dd7 f03c
000000d0: e356 99bc fd59 1c3d 7ef1 ccbc 55b1 153d
000000e0: 5c31 c0bc 70ee 523d b3c8 1f3c 9e16 573b
000000f0: 571d 223d a351 b4bb ae06 a83c baa9 cbba
00000100: c3a0 4ebc e664 29bd 7bc2 e43c dfa9 bd3b
00000110: 30f1 0ebd febb cbbc 11dc 90bc 5794 b53c
00000120: acd2 193d 9845 003d ef9f 073d 50a7 8c3c
00000130: 7c69 19bc 2934 083b 97fc f5bc 18b6 d33c
00000140: e5df e8bc bf23 133c 2283 82bc e7b5 213d
00000150: 2c36 26bd 305d 17bc 99c2 f93c 8894 4b3c
00000160: 78e0 643d 29a1 80bc 2b03 2bbd f05d bf3c
00000170: 13c2 4dbd 3cf9 a03c 1e77 4b3c db4e 0cbd
00000180: 5686 d6bc b5cd 13b9 0a0a 8bbc da19 1dbd
00000190: 4639 26bd f26b cd3c 585a 1d3a bac5 af3c
000001a0: 341d 49bd 8037 673c 3867 0fbd 0b19 273d
000001b0: f5c8 133d 4b0e 293c 4e31 fcbc c164 ddbc
000001c0: 3123 ecbb cd2f 03bd 746a 84bc b771 c93c
000001d0: d290 a23b f5b4 333d 680c 3e3c a61d 3cbd

weight f4 [84, 120]
0.05736226 0.0056251357 0.066576354 -0.038083237 0.07625843 0.04237547 -0.053878196 0.0055719838
0.01927181 -0.07303582 -0.03723687 -0.0035936313 0.020034382 0.015705379 -0.065240264 -0.067378074
0.011757582 -0.025674205 -0.08415256 -0.003584841 0.010435588 0.08934227 0.067588836 -0.012306883
0.025578815 0.029970782 0.02961087 0.07300098 0.06982247 -0.07247954 0.051080886 -0.08433576
0.035785913 -0.041446023 -0.06765885 0.08186451 0.010816602 0.028597506 0.008164559 0.07027992
-0.04764853 -0.06589835 -0.02105027 0.03564813 0.04449646 -0.08331799 -0.029227516 0.027117213
-0.0072445725 0.03972148 0.05573709 0.00968261 -0.07873377 -0.08664755 -0.07686309 -0.06714553
-0.07076879 -0.019736001 0.07227247 -0.057735946 0.050874006 0.01016604 0.008008908 0.092073426
-0.0362851 0.000555011 0.049375832 -0.048745725 -0.06342088 -0.019228598 0.018784402 -0.06880399
-0.07533799 -0.010061199 -0.018577801 -0.04402955 -0.048167016 -0.03045379 0.009217018 -0.011704528
0.07560769 -0.019721664 0.063250445 0.07377653 -0.09366236 0.08676103 0.040656213 0.058613956
0.04003517 0.009680758 0.091345005 0.050548926 -0.0806325 -0.0031598192 -0.10214798 0.08579064
0.02597839 -0.032309692 0.07285672 0.0063245213 -0.032210078 -0.015953891 -0.043936346 0.0461606
0.06838487 0.03854969 -0.007417246 -0.08795597 -0.056843393 0.08827387 -0.06267468 0.06901693
-0.07709437 -0.08460682 -0.049382694 0.038590167 -0.10056423 -0.04321787 0.02800515 0.023679584
0.055599533 0.010579132 0.08080424 0.0002862153 -0.011794043 0.03515166 -0.006040271 0.0352177
-0.039580047 0.010355176 0.027470987 -0.031339295 -0.072612345 0.11216114 0.07755061 -0.039364234
0.00031061628 -0.027074134 -0.008657649 -0.07173883 0.04863776 0.049452063 0.023584956 0.09958935
0.053349722 0.04997595 0.027954657 0.03177523 -0.07736638 0.00694557 0.0020861395 -0.045617927
-0.049867414 -0.038262274 0.0007198044 0.026450364 -0.013012293 0.04743643 0.03692723 0.033333424
0.021365952 -0.016869573 0.05381855 0.091375716 -0.06483902 -0.032579146 -0.08889822 0.03972947
0.056866907 0.06253119 0.04550351 0.014810809 0.042540453 0.06754128 0.06975448 -0.026791811
-0.066532485 0.034380298 0.052358102 -0.013390813 -0.10425661 -0.0026585604 0.02244499 0.057575494
-0.09263884 0.02669771 -0.07596523 -0.021670835 -0.018942123 -0.030808298 -0.0417784 -0.08961943
0.004545348 -0.026766272 0.07140506 0.08731386 0.020801751 -0.07731039 0.09532485 -0.08042656
-0.06071491 0.0046726186 0.00036084888 0.006049657 -0.0108571 0.025661096 0.031522438 0.035434775
0.0136563955 -0.059848286 -0.0656097 -0.019838195 -0.005963923 0.0036662044 -0.09042002 0.07314667
0.074970946 -0.056371074 0.01376793 0.028816734 -0.086638145 -0.08391965 -0.029210012 0.10443837
0.07427953 -0.08675774 -0.0020371182 -0.009712112 0.054912336 0.06595212 -0.087630585 -0.06559876
0.011586658 0.058062732 -0.10214082 -0.04491488 -0.091364324 0.038194377 0.03465371 -0.1069687
0.010823364 0.01943169 -0.012525384 0.008369041 -0.06400146 -0.08983319 0.085896574 0.016797915
-0.009719252 0.08995056 -0.082244284 0.028223176 -0.053027067 0.033292644 0.08573517 0.09019545
00000000: b0f4 6a3d 0f53 b83b 2f59 883d 2bfd 1bbd
00000010: 612d 9c3d e791 2d3d 62af 5cbd 3095 b63b
00000020: eadf 9d3c ce93 95bd b085 18bd 2183 6bbb
00000030: 251f a43c 91a8 803c b09c 85bd 84fd 89bd
00000040: e0a2 403c b652 d2bc 2d58 acbd a7ef 6abb
00000050: 07fa 2a3c 14f9 b63d 046c 8a3d cfa2 49bc
00000060: aa8a d13c 4985 f53c 7f92 f23c 8a81 953d
00000070: 15ff 8e3d 2770 94bd 313a 513d 3ab8 acbd
00000080: 4094 123d 4ec3 29bd b990 8abd 95a8 a73d
00000090: 1e38 313c 5145 ea3c a4c4 053c ebee 8f3d
000000a0: 1b2b 43bd b7f5 86bd 9e71 acbc c603 123d
000000b0: ec41 363d 9fa2 aabd 8b6e efbc eb24 de3c
000000c0: e163 edbb feb2 223d 934c 643d cfa3 1e3c
000000d0: 2c3f a1bd 4574 b1bd 656a 9dbd 9883 89bd
000000e0: 3aef 90bd 65ad a1bc 9703 943d 877c 6cbd
000000f0: 4361 503d 768f 263c cb37 033c fe90 bc3d
00000100: af9f 14bd 287e 113a 503e 4a3d 99a9 47bd
00000110: cee2 81bd 4b85 9dbc bfe1 993c 1be9 8cbd
00000120: ce4a 9abd bad7 24bc 7930 98bc 5458 34bd
00000130: c74a 45bd 3a7a f9bc fa02 173c 59c4 3fbc
00000140: 34d8 9a3d 548f a1bc 7389 813d 2618 973d
00000150: 0dd2 bfbd c4af b13d 2187 263d 3015 703d
00000160: ebfb 233d 0b9c 1e3c 1713 bb3d 640c 4f3d
00000170: a722 a5bd f814 4fbb f632 d1bd 01b3 af3d
00000180: a2d0 d43c 2b57 04bd e735 953d ee3d cf3b
00000190: b7ee 03bd bcb1 82bc 99f6 33bd e612 3d3d
000001a0: 5e0d 8c3d 48e6 1d3d 5e0c f3bb 4222 b4bd
000001b0: 9ed4 68bd eec8 b43d 955b 80bd c058 8d3d
000001c0: a7e3 9dbd 5746 adbd 8245 4abd b910 1e3d
000001d0: 9ef4 cdbd 3905 31bd 0e6b e53c b0fb c13c
000001e0: 56bc 633d 1854 2d3c b27c a53d 2b0f 9639
000001f0: cd3b 41bc 30fb 0f3d 77ed c5bb 6f40 103d
00000200: b01e 22bd c2a8 293c d60a e13c a25d 00bd
00000210: c8b5 94bd bdb4 e53d dbd2 9e3d 643c 21bd
00000220: 36da a239 93ca ddbc d0d8 0dbc cfeb 92bd
00000230: 6338 473d 3f8e 4a3d 3d35 c13c 80f5 cb3d
00000240: 3d85 5a3d 95b3 4c3d 2a01 e53c be26 023d
00000250: 4472 9ebd aa97 e33b 9db7 083b ddd9 3abd
00000260: c641 4cbd e7b8 1cbd 41b1 3c3a 6fae d83c
00000270: 8331 55bc b44c 423d 0241 173d a188 083d
00000280: a607 af3c 0f32 8abc d770 5c3d 3123 bb3d
00000290: 52ca 84bd b671 05bd 4510 b6bd 5ebb 223d
000002a0: 46ed 683d 5a10 803d e361 3a3d 09a9 723c
000002b0: e63e 2e3d 1553 8a3d 70db 8e3d 807a dbbc
000002c0: 2f42 88bd 5bd2 0c3d 7375 563d 2465 5bbc
000002d0: 7d84 d5bd 3e3b 2ebb 8ede b73c 48d4 6b3d
000002e0: 6fb9 bdbd 28b5 da3c a993 9bbd 0987 b1bc
000002f0: 832c 9bbc af61 fcbc d41f 2bbd 648a b7bd
00000300: 25f1 943b f144 dbbc d13c 923d 9cd1 b23d
00000310: 6f68 aa3c e954 9ebd ad39 c33d aeb6 a4bd
00000320: 33b0 78bd c41c 993b 5130 bd39 333c c63b
00000330: fae1 31bc 3837 d23c ac1d 013d 0e24 113d
00000340: 13bf 5f3c 7a23 75bd 615e 86bd b683 a2bc
00000350: 036d c3bb b444 703b 222e b9bd eccd 953d
00000360: 5e8a 993d 5be5 66bd e292 613c 1211 ec3c
00000370: 576f b1bd 11de abbd d649 efbc c9e3 d53d
00000380: de1f 983d 0bae b1bd 2c81 05bb 8d1f 1fbc
00000390: c2eb 603d e811 873d aa77 b3bd a558 86bd
000003a0: f7d5 3d3c 30d3 6d3d 352f d1bd aaf8 37bd
000003b0: 381d bbbd b571 1c3d 0cf1 0d3d 6812 dbbd
000003c0: 7b54 313c 352f 9f3c 4537 4dbc 4d1e 093c
000003d0: 3313 83bd 77fa b7bd 8bea af3d c89b 893c
000003e0: 7f3d 1fbc 0038 b83d b16f a8bd 4a34 e73c
000003f0: e932 59bd de5d 083d ec95 af3d 64b8 b83d

bias f4 [84]
-0.06307741 0.046483196 -0.00015723516 -0.013617509 0.06742853 0.0054642647 -0.07180546 0.0357054
-0.08884878 0.086492665 0.051877387 -0.03725676 0.06404713 -0.0044254414 0.10634174 -0.07043498
0.0076888236 -0.00049067417 0.07974215 0.06685973 0.018824607 0.07729596 0.06404503 -0.06660044
-0.014378843 0.05944265 0.07349659 -0.031799104 -0.039890055 0.095057234 0.07615759 -0.011887013
-0.06717354 0.06405478 -0.0091389315 -0.041755788 0.09623795 -0.04968985 -0.017202599 -0.07673071
0.029540177 -0.025536083 -0.056663565 0.021215573 0.017895214 0.021863513 -0.042694893 -0.08348333
0.03293423 -0.0846746 -0.030545473 0.08016105 2.1532647e-05 0.088187546 0.09440162 0.016918397
0.04443533 -0.078566335 0.026255095 0.025021873 -0.070779786 0.058682375 0.004584705 0.08489757
0.01906002 0.026880655 0.048680644 -0.008037668 0.09309163 0.063090496 -0.040230736 0.07606066
0.053910006 -0.061143942 0.028890995 0.051110204 -0.031510223 0.062420897 0.023617469 0.10916142
-0.09641084 0.068412095 0.0571186 -0.0026446145
00000000: bb2e 81bd 2a65 3e3d 7edf 24b9 f91b 5fbc
00000010: f817 8a3d 930d b33b be0e 93bd d33f 123d
00000020: 59f6 b5bd 1123 b13d 627d 543d 8b9a 18bd
00000030: 242b 833d 4b03 91bb b3c9 d93d 3740 90bd
00000040: 87f2 fb3b 96a0 00ba da4f a33d c1ed 883d
00000050: 1036 9a3c 584d 9e3d 0a2a 833d d065 88bd
00000060: 3d95 6bbc 237a 733d 6185 963d c73f 02bd
00000070: c163 23bd 5ead c23d 83f8 9b3d bfc1 42bc
00000080: 4892 89bd 272f 833d 75bb 15bc 1e08 2bbd
00000090: 6718 c53d 9687 4bbd 77ec 8cbc fe24 9dbd
000000a0: 3efe f13c 0c31 d1bc 0e18 68bd 48cc ad3c
000000b0: fc98 923c 1c1b b33c d7e0 2ebd 4ff9 aabd
000000c0: 0be6 063d e069 adbd 803a fabc 7a2b a43d
000000d0: 02a1 b437 ac9b b43d a355 c13d 7398 8a3c
000000e0: d201 363d 63e7 a0bd ed14 d73c acfa cc3c
000000f0: fef4 90bd ee5c 703d 4b3b 963b c7de ad3d
00000100: c223 9c3c d234 dc3c 5b65 473d 6cb0 03bc
00000110: d3a6 be3d 9735 813d fcc8 24bd b1c5 9b3d
00000120: bdd0 5c3d 1272 7abd cfac ec3c ef58 513d
00000130: dd10 01bd 0ead 7f3d 6c79 c13c 0690 df3d
00000140: 0c73 c5bd a41b 8c3d 31f5 693d 4551 2dbb

weight f4 [10, 84]
-0.13344666 0.16363466 0.21310632 -0.045376718 0.048155427 -0.12334166 -0.05402539 0.017775001
-0.10105832 0.085478246 0.107370205 -0.29205933 -0.09039468 0.01377469 -0.071433984 0.06341416
-0.021187173 -0.002707663 -0.010193258 -0.22758621 -0.059284672 -0.065515175 -0.0795582 -0.06871329
-0.11033984 0.021592813 0.06493978 0.10060987 0.066448264 0.05861634 0.092512086 -0.20545211
0.11568532 -0.09014933 -0.098063275 -0.185066 0.18114927 -0.10363787 0.06288893 -0.028721493
0.05049538 0.075807884 -0.07800213 0.113403805 -0.029706385 -0.012108327 0.041216984 -0.1446077
0.028728351 0.041765355 -0.123519465 0.06263277 -0.14885274 0.08929607 -0.11642818 -0.12333438
0.02736732 0.06251987 -0.13733487 -0.20831127 0.00023359408 -0.2017602 0.007789255 -0.13890801
-0.10569828 -0.010897302 0.14784412 0.12423966 -0.017198347 0.03476682 0.13137726 0.056419455
0.075146146 0.021925556 -0.10290896 -0.039202813 0.086771496 -0.038117215 0.09168929 0.2535402
0.08997567 0.10178705 0.27579117 0.06814509 -0.09936699 0.0862865 -0.10224746 -0.0028742603
0.17008494 0.16942865 0.18468407 -0.026998973 -0.10040202 0.19868249 0.27915424 0.037972745
-0.19293003 -0.06660119 0.1415851 -0.08978271 -0.07460811 -0.03090183 0.006177975 -0.10819995
0.13414587 -0.104317844 -0.11016534 0.20070864 0.045884714 0.08710969 -0.10505824 0.06063028
-0.085566595 -0.21529526 -0.19197996 0.06611153 -0.12878025 -0.017458428 -0.23429567 0.05733114
-0.0044986857 -0.004970785 0.115067884 -0.07535686 0.047573324 0.05015461 -0.0052804635 -0.0008491757
-0.049094703 -0.15862827 -0.092454545 -0.20180734 0.081005774 -0.089694336 0.12850966 0.09820452
0.06903643 0.053140003 0.26595053 0.064179905 -0.0069546727 0.027572053 -0.055662945 -0.070830114
-0.12868528 0.13070032 -0.090451546 -0.012243549 -0.038576763 -0.024476143 -0.13207361 -0.016848652
0.13017623 -0.058193896 0.18755351 0.014458316 -0.03809625 -0.0018930613 -0.042226955 -0.13352379
0.102304034 -0.092353016 0.042063832 -0.17397177 -0.031856816 -0.06390839 -0.15839073 0.22294872
0.118252724 -0.09408607 -0.034113694 0.07109375 0.03457751 -0.10425199 0.0477807 0.030952087
0.089594945 -0.07953864 -0.042204373 0.0025495675 0.13960621 0.12963066 0.2802343 0.07137135
-0.03531104 0.09206527 0.24632145 -0.066717766 -0.1435332 0.16165555 0.20923887 -0.0070702205
-0.09818951 -0.07468855 -0.10063416 -0.0010284606 0.04191216 -0.16846213 0.038800247 -0.18901989
0.013630688 -0.10326896 0.3020391 -0.062019926 0.009991178 0.11452228 0.04180934 0.11023738
-0.06486899 0.057885285 -0.03919108 0.12768504 0.09781561 -0.09630809 0.099090844 -0.082010955
-0.018264527 0.090709805 0.044370122 0.007537829 -0.047579534 0.030115357 0.10547209 0.06465824
-0.014359417 0.0971 0.048150934 0.21861476 -0.1434812 -0.2184145 -0.0688733 -0.14750953
0.07706966 -0.08303332 -0.090882264 -0.04090264 -0.0774884 -0.10524548 0.10047311 -0.055533037
-0.17787552 0.014467838 -0.11455581 -0.055199824 0.11207397 -0.13143769 0.09615606 -0.19267848
0.09858995 0.007468204 0.2925819 -0.0823785 -0.10286346 -0.03309815 -0.09603924 -0.07955186
00000000: 3ea6 08be d88f 273e 8b38 5a3e f0dc 39bd
00000010: a03e 453d 8d9a fcbd ba49 5dbd e19c 913c
00000020: aaf7 cebd 380f af3d e9e4 db3d cd88 95be
00000030: d920 b9bd 3daf 613c fb4b 92bd 48df 813d
00000040: b990 adbc 0c73 31bb 9f01 27bc 5c0c 69be
00000050: 7cd4 72bd d22c 86bd 69ef a2bd 8eb9 8cbd
00000060: dbf9 e1bd 69e3 b03c 26ff 843d 8c0c ce3d
00000070: 0716 883d b017 703d fa76 bd3d 0a62 52be
00000080: 6dec ec3d 36a0 b8bd 66d5 c8bd f181 3dbe
00000090: 327f 393e 1740 d4bd e9cb 803d 5649 ebbc
000000a0: 3ed4 4e3d 2a41 9b3d 95bf 9fbd 4140 e83d
000000b0: ce5a f3bc 0162 46bc 24d3 283d 0a14 14be
000000c0: b857 eb3c 2612 2b3d c6f7 fcbd 9c45 803d
000000d0: da6c 18be dce0 b63d e671 eebd bc96 fcbd
000000e0: 6e31 e03c 6b0a 803d 83a1 0cbe 8d4f 55be
000000f0: eff0 7439 3a9a 4ebe 023d ff3b e73d 0ebe
00000100: 5778 d8bd 998a 32bc 7364 173e 5d71 fe3d
00000110: 8ce3 8cbc a767 0e3d c387 063e 1618 673d
00000120: 39e6 993d 399d b33c efc1 d2bd 2193 20bd
00000130: 41b5 b13d cc20 1cbd 98c7 bb3d 05d0 813e
00000140: 2a45 b83d bb75 d03d 8034 8d3e a78f 8b3d
00000150: ec80 cbbd fab6 b03d 1e67 d1bd 165e 3cbb
00000160: bf2a 2e3e b47e 2d3e d21d 3d3e f32c ddbc
00000170: 939f cdbd 6c73 4b3e 4eed 8e3e 4f89 1b3d
00000180: 738f 45be 3466 88bd affb 103e ffdf b7bd
00000190: 23cc 98bd d625 fdbc 9c70 ca3b ef97 ddbd
000001a0: 895d 093e 98a4 d5bd 5e9e e1bd 9186 4d3e
000001b0: 9cf1 3b3d 9166 b23d c628 d7bd 7557 783d
000001c0: 8a3d afbd 5c76 5cbe 6596 44be 7b65 873d
000001d0: f8de 03be fa04 8fbc 34eb 6fbe 0fd4 6a3d
000001e0: b669 93bb f8e1 a2bb b6a8 eb3d b354 9abd
000001f0: 3fdc 423d ec6e 4d3d bd07 adbb 379b 5eba
00000200: 8717 49bd 736f 22be cf58 bdbd 95a6 4ebe
00000210: 5be6 a53d aab1 b7bd 0998 033e 741f c93d
00000220: f962 8d3d 55a9 593d ab2a 883e c170 833d
00000230: 06e4 e3bb c9de e13c d4fe 63bd 610f 91bd
00000240: 13c6 03be 4ed6 053e a93e b9bd 2b99 48bc
00000250: ab02 1ebd 3182 c8bc 4e3e 07be 2f06 8abc
00000260: eb4c 053e b95c 6ebd 070e 403e 93e2 6c3c
00000270: d00a 1cbd 9920 f8ba 2cf6 2cbd 76ba 08be
00000280: c784 d13d 9423 bdbd 204b 2c3d a825 32be
00000290: 4b7c 02bd 67e2 82bd 2e31 22be ab4c 643e
000002a0: 7c2e f23d 33b0 c0bd cdba 0bbd 9a99 913d
000002b0: 26a1 0d3d 1182 d5bd b2b5 433d 3b8f fd3c
000002c0: 8e7d b73d 28e5 a2bd 7ede 2cbd a516 273b
000002d0: eef4 0e3e e6bd 043e df7a 8f3e 242b 923d
000002e0: 4fa2 10bd b78c bc3d b13b 7c3e 53a3 88bd
000002f0: 5efa 12be 0889 253e b742 563e 4fad e7bb
00000300: 9517 c9bd 4ff6 98bd 4819 cebd 69cd 86ba
00000310: 16ac 2b3d 5681 2cbe 02ed 1e3d 6e8e 41be
00000320: 4053 5f3c ad7e d3bd dea4 9a3e 9b08 7ebd
00000330: 0ab2 233c a88a ea3d 4540 2b3d 23c4 e13d
00000340: 08da 84bd 1f19 6d3d d386 20bd debf 023e
00000350: 8d53 c83d 2d3d c5bd 24f0 ca3d 5cf5 a7bd
00000360: 7d9f 95bc 10c6 b93d 72bd 353d e5ff f63b
00000370: c2e2 42bd 7bb4 f63c c001 d83d 8a6b 843d
00000380: c343 6bbc 5ddc c63d ea39 453d 8cdc 5f3e
00000390: bcec 12be 0da8 5fbe 720d 8dbd bd0c 17be
000003a0: b3d6 9d3d 600d aabd 7b20 babd 8789 27bd
000003b0: 3db2 9ebd f18a d7bd d9c4 cd3d 9c76 63bd
000003c0: 0025 36be 830a 6d3c 3d9c eabd 3619 62bd
000003d0: 0a87 e53d 9a97 06be 78ed c43d 824d 45be
000003e0: 87e9 c93d d6b7 f43b 4bcd 953e 0fb6 a8bd
000003f0: 14aa d2bd ed91 07bd 39b0 c4bd 16ec a2bd

bias f4 [10]
-0.053188547 0.12271447 0.053978946 -0.033756144 -0.05696352 0.052320722 0.035228916 0.021824079
-0.06919181 0.011342628
00000000: 3cdc 59bd b951 fb3d 0719 5d3d e243 0abd
00000010: 9452 69bd 414e 563d 324c 103d 69c8 b23c
00000020: 70b4 8dbd 6ed6 393c
